model.npz (npz, 800757 bytes, 35 tensors)

lstm/0/b5 f4 [128]
0	0x00000000	0.0
1	0x00000000	0.0
2	0x00000000	0.0
3	0x00000000	0.0
4	0x00000000	0.0
5	0x00000000	0.0
6	0x00000000	0.0
7	0x00000000	0.0
8	0x00000000	0.0
9	0x00000000	0.0
10	0x00000000	0.0
11	0x00000000	0.0
12	0x00000000	0.0
13	0x00000000	0.0
14	0x00000000	0.0
15	0x00000000	0.0
16	0x00000000	0.0
17	0x00000000	0.0
18	0x00000000	0.0
19	0x00000000	0.0
20	0x00000000	0.0
21	0x00000000	0.0
22	0x00000000	0.0
23	0x00000000	0.0
24	0x00000000	0.0
25	0x00000000	0.0
26	0x00000000	0.0
27	0x00000000	0.0
28	0x00000000	0.0
29	0x00000000	0.0
30	0x00000000	0.0
31	0x00000000	0.0
32	0x00000000	0.0
33	0x00000000	0.0
34	0x00000000	0.0
35	0x00000000	0.0
36	0x00000000	0.0
37	0x00000000	0.0
38	0x00000000	0.0
39	0x00000000	0.0
40	0x00000000	0.0
41	0x00000000	0.0
42	0x00000000	0.0
43	0x00000000	0.0
44	0x00000000	0.0
45	0x00000000	0.0
46	0x00000000	0.0
47	0x00000000	0.0
48	0x00000000	0.0
49	0x00000000	0.0
50	0x00000000	0.0
51	0x00000000	0.0
52	0x00000000	0.0
53	0x00000000	0.0
54	0x00000000	0.0
55	0x00000000	0.0
56	0x00000000	0.0
57	0x00000000	0.0
58	0x00000000	0.0
59	0x00000000	0.0
60	0x00000000	0.0
61	0x00000000	0.0
62	0x00000000	0.0
63	0x00000000	0.0
64	0x00000000	0.0
65	0x00000000	0.0
66	0x00000000	0.0
67	0x00000000	0.0
68	0x00000000	0.0
69	0x00000000	0.0
70	0x00000000	0.0
71	0x00000000	0.0
72	0x00000000	0.0
73	0x00000000	0.0
74	0x00000000	0.0
75	0x00000000	0.0
76	0x00000000	0.0
77	0x00000000	0.0
78	0x00000000	0.0
79	0x00000000	0.0
80	0x00000000	0.0
81	0x00000000	0.0
82	0x00000000	0.0
83	0x00000000	0.0
84	0x00000000	0.0
85	0x00000000	0.0
86	0x00000000	0.0
87	0x00000000	0.0
88	0x00000000	0.0
89	0x00000000	0.0
90	0x00000000	0.0
91	0x00000000	0.0
92	0x00000000	0.0
93	0x00000000	0.0
94	0x00000000	0.0
95	0x00000000	0.0
96	0x00000000	0.0
97	0x00000000	0.0
98	0x00000000	0.0
99	0x00000000	0.0
100	0x00000000	0.0
101	0x00000000	0.0
102	0x00000000	0.0
103	0x00000000	0.0
104	0x00000000	0.0
105	0x00000000	0.0
106	0x00000000	0.0
107	0x00000000	0.0
108	0x00000000	0.0
109	0x00000000	0.0
110	0x00000000	0.0
111	0x00000000	0.0
112	0x00000000	0.0
113	0x00000000	0.0
114	0x00000000	0.0
115	0x00000000	0.0
116	0x00000000	0.0
117	0x00000000	0.0
118	0x00000000	0.0
119	0x00000000	0.0
120	0x00000000	0.0
121	0x00000000	0.0
122	0x00000000	0.0
123	0x00000000	0.0
124	0x00000000	0.0
125	0x00000000	0.0
126	0x00000000	0.0
127	0x00000000	0.0

lstm/1/w6 f4 [128, 128]
0	0xbd03fd72	-0.032224126
1	0x3de24218	0.11047763
2	0x3d883f4d	0.06652699
3	0xbd2a6b0f	-0.041606005
4	0xbd4ccb19	-0.049998377
5	0x3d0ce8e6	0.034401797
6	0xbd9201d3	-0.07129254
7	0xbcb276a2	-0.021785084
8	0xbdebab93	-0.115073346
9	0xbb452453	-0.0030081465
10	0x3cf6b36c	0.030114852
11	0x3d4063dc	0.046970233
12	0x3e12ddf3	0.1434248
13	0x3d223119	0.039597604
14	0xbdd7a0d5	-0.10528723
15	0xbe5ed332	-0.21760252
16	0x3c33397b	0.010938997
17	0xbd1c070e	-0.038092665
18	0xbd9eb711	-0.07749761
19	0xbcebbab1	-0.028775545
20	0xbd63e32c	-0.05563657
21	0xbc831277	-0.016000016
22	0x3d49954f	0.049214657
23	0x3e3e78d2	0.18600777
24	0xbd0a53fc	-0.0337715
25	0xbd052577	-0.032506432
26	0x3d8aec40	0.06783342
27	0x3e02e110	0.12781167
28	0xbd2b8f75	-0.04188486
29	0xbd0c95ad	-0.03432243
30	0x3d4c7356	0.04991468
31	0xbcd1d74f	-0.025615362
32	0x3d4fd6ed	0.05074208
33	0xbe24609e	-0.16052482
34	0x3d30e277	0.043184724
35	0x3de3ad45	0.11117033
36	0xbdaff203	-0.08591082
37	0xbc1cfe3a	-0.009582097
38	0xbcbd3bb0	-0.02309975
39	0x3dcd2be7	0.10018139
40	0x3e418742	0.18899253
41	0x3b0de0c5	0.0021648866
42	0x3cfc5e1a	0.03080659
43	0x3db80202	0.08984758
44	0x3d056e36	0.03257581
45	0xbe0a200a	-0.13488784
46	0xbdb84c3b	-0.08998915
47	0xbcadc1f4	-0.021210648
48	0x3c21f877	0.009885899
49	0x3dc4e097	0.096131496
50	0xbdd23411	-0.10263837
51	0x3d764162	0.060120948
52	0xbcc36160	-0.023850143
53	0xbd971657	-0.07377308
54	0xbae2dca9	-0.0017308193
55	0xbe9e83e0	-0.30959988
56	0x3c1b52b5	0.009480168
57	0x3c3c6c76	0.0115004685
58	0x3bacbe2a	0.0052716928
59	0x3e3c501d	0.18389936
60	0xbda2f742	-0.07957317
61	0xbdad87fb	-0.08473202
62	0x3bbd0454	0.005768338
63	0x3e165e8d	0.14684506
64	0xbd256838	-0.040382594
65	0x3d5575f6	0.05211445
66	0x3c9b15b4	0.018931247
67	0xbcfe098c	-0.031010412
68	0x3cbcd564	0.023050971
69	0x3cf2f30a	0.029656906
70	0xbbf663fc	-0.0075192433
71	0x3dfab1c6	0.12240939
72	0xbd8c0d92	-0.06838526
73	0x3dae5c19	0.0851366
74	0x3daf3f73	0.08557024
75	0xbdd5ed0b	-0.10445603
76	0xbd536407	-0.051609065
77	0x3dd2f3ed	0.103004314
78	0x3d1bc106	0.03802588
79	0xbd1271f0	-0.03575319
80	0xbbb31183	-0.005464734
81	0xbd968606	-0.07349782
82	0xbc0a9fe9	-0.008460977
83	0x3dacda65	0.08440093
84	0x3c9283c1	0.01788509
85	0x3e2d5d0b	0.16930024
86	0x3c823e59	0.01589887
87	0x3cb10bec	0.02161213
88	0x3dacf295	0.08444706
89	0x3e524337	0.20533453
90	0x3d3ce666	0.046118163
91	0xbe31f0c2	-0.17376998
92	0x3ddae15d	0.10687516
93	0xbda29afe	-0.07939719
94	0x3dc4b157	0.096041374
95	0x3cf925da	0.030413557
96	0xbe2d9954	-0.16953021
97	0xbd433957	-0.047662105
98	0x3ce112c7	0.027474774
99	0xbbf70404	-0.0075383205
100	0x3daba6f5	0.08381454
101	0xbd59bc63	-0.053158175
102	0xbb288563	-0.002571427
103	0x3d8cc619	0.06873722
104	0xbde4fbe1	-0.111808546
105	0xbc910343	-0.01770175
106	0xbd610024	-0.054931775
107	0x3caa4a9a	0.020787526
108	0x3e0e451a	0.13893548
109	0xbd0cbb3e	-0.034358256
110	0xbe25d9f6	-0.16196427
111	0x3dc151f8	0.094394624
112	0x3a82590d	0.0009944752
113	0xbd93ea54	-0.07222429
114	0xbd454a07	-0.0481663
115	0x3db7b93a	0.08970876
116	0x3c98e649	0.018664496
117	0xbcbed81c	-0.023296408
118	0xbcc8ab12	-0.024495635
119	0x3da3dc14	0.08000961
120	0x3da7f364	0.0820072
121	0xbd8479e8	-0.06468564
122	0x3c54c89a	0.01298728
123	0xbde04c89	-0.10952098
124	0xbdb9c8d1	-0.09071506
125	0xbe06b0d6	-0.13153395
126	0x3dc280a6	0.09497194
127	0xbdb4462a	-0.08802445
128	0x3c8c8b64	0.01715631
129	0xbc1eea8e	-0.009699477
130	0xbdfae282	-0.12250234
131	0x3d90fdc1	0.0707965
132	0xbca7d0b6	-0.020485263
133	0x3d3b03f5	0.04565807
134	0xbd1c47c3	-0.038154375
135	0x3d7c19ca	0.061548032
136	0x3e3c52e3	0.18390994
137	0x3cb3852e	0.021914091
138	0x3c7c1e5b	0.015388097
139	0xbe5cca85	-0.2156163
140	0x3c204bb8	0.009783678
141	0x3d9aa393	0.075507306
142	0xbe1e5ed2	-0.15465859
143	0x3dc73bb0	0.09728181
144	0xbdcb5c4e	-0.09929715
145	0xbc0fd96e	-0.008779867
146	0x3df99451	0.12186492
147	0xbd77e1eb	-0.060518187
148	0xbd2c4e74	-0.042067006
149	0x3d821df5	0.0635337
150	0xbccca2ca	-0.024979968
151	0x3d496db5	0.04917689
152	0x3d8dd038	0.0692448
153	0xbdf9fb09	-0.12206084
154	0xbd67a189	-0.056550536
155	0x3dc2f39c	0.09519121
156	0x3e25ae6d	0.1617982
157	0x3de563b4	0.112006575
158	0xbc5c4e57	-0.013446412
159	0x3d210695	0.039312918
160	0xbd896704	-0.06709102
161	0xbd3cb335	-0.046069343
162	0x3c39c5d9	0.011338674
163	0xbcfe59ee	-0.031048741
164	0xbc9bddc4	-0.019026645
165	0xbe2f5200	-0.17121124
166	0xbdb51925	-0.088426866
167	0x3d14a876	0.03629347
168	0xbe737a38	-0.23777092
169	0x3d38bb71	0.045100633
170	0x3d009ca9	0.031399403
171	0x3cb67f9d	0.022277648
172	0x3e41df60	0.18932867
173	0x3cfddeb8	0.03098999
174	0xbb4d0150	-0.00312813
175	0x3d80e031	0.06292761
176	0xbe1c0ba4	-0.15238816
177	0xbd206141	-0.03915525
178	0x3ccdf46c	0.025140963
179	0x3d449cf4	0.048001245
180	0x3d0f98c1	0.035057787
181	0x3d89c8ed	0.06727777
182	0x3dc53dde	0.09630941
183	0x3d64c3ba	0.055850722
184	0xbe4c67dd	-0.19961496
185	0x3dadd060	0.0848701
186	0x3decf6de	0.11570524
187	0x3e4462b7	0.19178282
188	0x3dccbc86	0.099968955
189	0xbd258515	-0.04041012
190	0x3d80d90e	0.062914
191	0xbc53c3bc	-0.012925085
192	0xbd37b223	-0.04484762
193	0x3e298254	0.16553622
194	0xbe207ea0	-0.15673304
195	0x3e250f3b	0.16119091
196	0xbd33eb85	-0.04392578
197	0x3e28ab3f	0.16471575
198	0xbd245f8e	-0.04013019
199	0xbd84213c	-0.064516515
200	0xbdc5d258	-0.096592605
201	0x3db4f55c	0.08835861
202	0xbbc82336	-0.006107713
203	0x3c40d56f	0.0117696365
204	0xbceb6251	-0.028733404
205	0xbd5d6911	-0.054055277
206	0xbddfeed2	-0.10934223
207	0xbd56c745	-0.052436132
208	0x3e01dadb	0.12681143
209	0xbde16b79	-0.11006827
210	0x3d90761c	0.070537776
211	0xbde73e13	-0.112911366
212	0xbd73b259	-0.059496257
213	0x3daffe29	0.08593399
214	0xbc89c492	-0.016817365
215	0xbd98878f	-0.07447731
216	0xbdab06f4	-0.083509356
217	0xbd66ab44	-0.056315675
218	0x3c4208d6	0.011842927
219	0x3cb85905	0.022503385
220	0x3d89c69b	0.06727334
221	0xbce46ec2	-0.027884845
222	0xbcd54b84	-0.026036985
223	0xbd41ccb3	-0.047314357
224	0xbccf40a4	-0.025299378
225	0xbdf75918	-0.1207754
226	0x3c48e1c9	0.012260863
227	0xbe2f795f	-0.17136143
228	0xbdb97515	-0.09055535
229	0x3d23972b	0.039939087
230	0x3cd2a2db	0.025712421
231	0xbd783d7c	-0.06060551
232	0xbd52e3bc	-0.051486716
233	0x3d8a9d2b	0.06768259
234	0x3c53cf05	0.012927775
235	0x3e0f7eda	0.14013234
236	0x3d9ae865	0.07563857
237	0xbcb18e28	-0.02167423
238	0xbdfde968	-0.12398034
239	0xbe0a2daf	-0.1349399
240	0xbd9bbd89	-0.0760451
241	0xbdec2d6f	-0.11532103
242	0x3c0336a4	0.008008633
243	0xbe3439bc	-0.17600149
244	0x3d9425d7	0.0723378
245	0xbe053f11	-0.13012339
246	0xbc4528f1	-0.012033687
247	0xbd64903c	-0.055801615
248	0xbcd0d4c2	-0.025492076
249	0xbd8df11c	-0.069307536
250	0x3d492f06	0.04911711
251	0x3e3621dc	0.17786354
252	0xbde6f311	-0.1127683
253	0xbd7e9a6b	-0.062158983
254	0xbd82952a	-0.06376107
255	0x3bdb8c9f	0.006700113

lstm/0/w1 f4 [128, 1]
0	0x3ef44a7d	0.4771308
1	0x3fcdb5ba	1.6071084
2	0xbfd0a0f2	-1.6299117
3	0xbf9dd390	-1.2330189
4	0x3f968c00	1.1761475
5	0x3f848bfa	1.0355217
6	0x4038a064	2.8847895
7	0x3e76fb4d	0.24119301
8	0x3f4c88db	0.79896325
9	0xbe99fc9e	-0.30075544
10	0x3fcbcff6	1.592284
11	0x3f0ccd8a	0.5500113
12	0xbf4e9b98	-0.8070617
13	0x3fd8e415	1.6944605
14	0x3fdaf223	1.7105144
15	0xbf37c068	-0.71777964
16	0xbfa85b72	-1.3152907
17	0x3e95929b	0.29213414
18	0x3fc38d4a	1.5277493
19	0xbfe936af	-1.8219813
20	0x3f9deae5	1.2337309
21	0xbfa60090	-1.2968922
22	0xbcc75507	-0.024332536
23	0x3e6d1df0	0.23155951
24	0x3f9717f5	1.1804186
25	0xbf8ececf	-1.1156863
26	0x3f86e830	1.0539608
27	0xbf21026c	-0.6289432
28	0xbe9d523b	-0.307268
29	0xbebeab05	-0.37239853
30	0xbd06e376	-0.032931767
31	0xbf6b0580	-0.9180527
32	0xbf4c6432	-0.79840386
33	0xbf6ddcca	-0.9291502
34	0xbe98eb17	-0.2986686
35	0xba5e1343	-0.0008471498
36	0x3fd321f4	1.6494737
37	0xbd4d9d20	-0.050198674
38	0xbf46baf7	-0.77629036
39	0xbe38a709	-0.18032469
40	0xbf896c22	-1.0736125
41	0xbe396b15	-0.18107255
42	0xbf0378b9	-0.51356083
43	0xbf80eb24	-1.0071759
44	0x3e037cc7	0.12840568
45	0xbf504a0f	-0.81363004
46	0xbf051360	-0.5198269
47	0xbfcd83a3	-1.6055797
48	0xbf544be8	-0.82928324
49	0x3f2a158c	0.6643913
50	0x3f3d8cd3	0.74043006
51	0x3fec3bdf	1.8455771
52	0xbf9fd166	-1.2485778
53	0x3fb0abc3	1.3802418
54	0xbb5f4d55	-0.0034073193
55	0xbe44c793	-0.19216757
56	0x3f50fe90	0.8163843
57	0x3f9c5bb5	1.2215487
58	0xbf92b257	-1.1460675
59	0x3f0d5a40	0.55215836
60	0x3fa8a0a2	1.3174021
61	0xbf12c447	-0.57330745
62	0xbecf4bbe	-0.40487474
63	0x402501cb	2.5782344
64	0xbf6c7b3c	-0.9237554
65	0x3e6e9f89	0.23303045
66	0xbee84f98	-0.45373225
67	0xbe9d13cf	-0.30679175
68	0xbe26b1cd	-0.16278763
69	0xbe11300d	-0.14178486
70	0x3f887e8b	1.0663618
71	0xbef6d692	-0.4821058
72	0x3f51d142	0.8195993
73	0xbf47dcd1	-0.78071314
74	0x3e977f58	0.29589343
75	0xbd62a307	-0.055331256
76	0x3e0c7c08	0.13719189
77	0xbec5022f	-0.38478228
78	0x3fcd2f65	1.6030089
79	0xc0002c46	-2.0027022
80	0xbf505ae5	-0.81388694
81	0xbe64f9fe	-0.2236099
82	0xbd7f2bc4	-0.062297598
83	0x3f510a8c	0.8165672
84	0x3f4b6d82	0.7946397
85	0xbf3000d8	-0.6875129
86	0xbfbd6d93	-1.4799064
87	0x3f0b0eed	0.5431965
88	0x3edb2e38	0.428087
89	0x3f18c2ef	0.59672445
90	0x3fb3e728	1.4054918
91	0x3d0e7746	0.034781717
92	0xbf3b6832	-0.73205864
93	0xbede0445	-0.43362632
94	0x3f7717f1	0.96520907
95	0x3e1fb6ce	0.15597078
96	0xbd0afae8	-0.03393069
97	0x3fb678c5	1.4255606
98	0x3e7ad587	0.24495517
99	0x3eeb5aa2	0.45967585
100	0xbc904c8f	-0.017614631
101	0xbf80f4d4	-1.0074716
102	0x3f14648d	0.5796593
103	0xbf6ca106	-0.924332
104	0xbf0a2d41	-0.539753
105	0xbfc591fd	-1.5435177
106	0xbf1f94e1	-0.62336546
107	0xbfbdf893	-1.4841484
108	0xbf81ad29	-1.0130969
109	0xbfb2665e	-1.393749
110	0x40148485	2.3205884
111	0xbf48524f	-0.7825059
112	0x3fdc2cf2	1.7201216
113	0x3e908505	0.28226486
114	0x3ee732f6	0.45156068
115	0x3fbf06b7	1.4923924
116	0x3f9e03bf	1.2344893
117	0xbe551a9d	-0.20810933
118	0xbf2f265a	-0.68417895
119	0xbfca8407	-1.5821542
120	0xbd452b65	-0.048137087
121	0xbec7c4e5	-0.39017406
122	0x402130fa	2.5186143
123	0x3f1e4c27	0.6183495
124	0x3faa1a44	1.3289266
125	0xbfd1d928	-1.6394396
126	0x3fe0f310	1.7574177
127	0x3f55b777	0.8348307

lstm/0/w5 f4 [128, 128]
0	0xbd0a1a0b	-0.033716243
1	0x3c9348f2	0.017979119
2	0x3d7113af	0.058856662
3	0x3c861f0a	0.016372222
4	0x3ccde441	0.025133254
5	0xbbf08a07	-0.007340673
6	0xbd5a6fc6	-0.05332925
7	0xbb69ceed	-0.0035676316
8	0x3b4d6d89	0.0031345806
9	0xbcb343b6	-0.021882873
10	0xbdc947d3	-0.098281525
11	0x3d0f4a1f	0.034982797
12	0x3d48b9f8	0.04900548
13	0x3c8b8894	0.017032899
14	0xbd657f11	-0.056029383
15	0x3dd76025	0.10516385
16	0x3c37d3f9	0.011219972
17	0xbde16f0a	-0.11007507
18	0xbdb8306e	-0.08993612
19	0x3c7bb2fe	0.015362499
20	0xbd85110a	-0.064973906
21	0xbd18d2bb	-0.037310343
22	0x3cd7fb47	0.026364936
23	0xbbcbc3a6	-0.0062183915
24	0x3e2da017	0.169556
25	0xbda81407	-0.08206945
26	0x3da67426	0.08127622
27	0x3dbf467c	0.09339616
28	0xbde6175d	-0.11234925
29	0xbdf3a877	-0.118973665
30	0x3d1fb392	0.03898961
31	0x3d8149bb	0.06312891
32	0x3e1f9f37	0.1558808
33	0x3e27ce28	0.16387236
34	0xbda865c4	-0.08222535
35	0xbd581782	-0.052756794
36	0xbd77ef5b	-0.060531
37	0xbc249fb0	-0.010047838
38	0xbe4622d5	-0.19349225
39	0x3da92832	0.0825962
40	0xbe09fe66	-0.13475952
41	0xbc97e2a2	-0.018540684
42	0xbb4d874a	-0.0031361156
43	0x3db359e2	0.08757378
44	0xbe7af451	-0.24507262
45	0x3c93e214	0.018052138
46	0xbc1c8d2f	-0.009555145
47	0x3d617eaf	0.055052456
48	0xbc1782c9	-0.00924749
49	0x3e611037	0.21978842
50	0x3a99f1b2	0.0011745004
51	0x3d0a4813	0.03376014
52	0x3d02df8d	0.031951476
53	0xbd585ec2	-0.052824743
54	0xbd55e44e	-0.05221968
55	0xbdbc2e22	-0.09188487
56	0x3de8045f	0.11328959
57	0x3d81328c	0.06308469
58	0xbc5e53ff	-0.013569831
59	0xbd94a9cf	-0.07258951
60	0x3dbb31bc	0.091403455
61	0xbd8e953c	-0.06962058
62	0x3d8adfcf	0.06780969
63	0xbcd7a0f9	-0.026321875
64	0xbe0e6f9b	-0.13909762
65	0x3d97cea4	0.074124604
66	0xbd601e7b	-0.05471657
67	0xbb3f7dd6	-0.0029219291
68	0xbd421f9f	-0.047393437
69	0x3d15c55e	0.036565177
70	0x3d8fc0b7	0.07019179
71	0x3e40310b	0.18768708
72	0xbd13b8f4	-0.036065057
73	0x3dbacaf7	0.09120744
74	0x3e0e27cf	0.13882373
75	0xbd8eed1f	-0.06978821
76	0x3ce0ef0f	0.027457742
77	0xbd517956	-0.051141106
78	0xbdb601b3	-0.08887043
79	0xbd4c56c8	-0.04988745
80	0xbe2b04b5	-0.16701014
81	0xbdd182fd	-0.10230062
82	0xbd00e0fc	-0.03146456
83	0x3d6624d3	0.056187462
84	0xbcef5fb8	-0.029220447
85	0xbe1f267d	-0.15542026
86	0xbdbd69b4	-0.09248677
87	0xbd87dc7e	-0.066338524
88	0xbdaf020a	-0.08545311
89	0xbe8bdff8	-0.27319312
90	0x3db95fa1	0.09051443
91	0xbda6a6d7	-0.08137291
92	0x3d35cf9f	0.044387456
93	0xbdadbd72	-0.084833995
94	0x3de885ba	0.11353631
95	0xbd29f859	-0.04149661
96	0xbde5ee34	-0.11227074
97	0xbe4337c9	-0.19064249
98	0x3db5c9c5	0.08876375
99	0x3d47340b	0.048633616
100	0xbd59963b	-0.053121787
101	0x3b06e033	0.002058041
102	0x3e11e48b	0.14247338
103	0x3db608d0	0.088883996
104	0xbd064a73	-0.032785844
105	0xbd16b4bc	-0.036793455
106	0xbdf49ea7	-0.11944323
107	0x3d95c8f3	0.07313719
108	0xbe066c37	-0.13127218
109	0xbd1a7b94	-0.03771551
110	0xbc6de066	-0.014518833
111	0x3dbbd2dc	0.091710776
112	0x3d855388	0.06510073
113	0xbbbfa7bc	-0.005848853
114	0xbc10cb30	-0.008837506
115	0x3dc09777	0.094038896
116	0x3e30b8e4	0.1725803
117	0x3cfcefb4	0.030876018
118	0x3d142c44	0.036175027
119	0xbdc14c4a	-0.09438379
120	0x3cb058ae	0.02152666
121	0xbcf2796c	-0.029598914
122	0x3cb3389b	0.021877578
123	0x3de11170	0.10989654
124	0xbd31304e	-0.043258958
125	0x3cdab28c	0.026696466
126	0x3c463c74	0.012099374
127	0xbddac5ba	-0.106822446
128	0xbe05b57d	-0.13057514
129	0x3d8d358f	0.06894981
130	0x39b106fd	0.00033765277
131	0x3e27704c	0.16351432
132	0x3cb74042	0.022369508
133	0xbe306abf	-0.1722822
134	0xbe065784	-0.13119322
135	0x3de5f55f	0.112284414
136	0xbd9aa406	-0.07550816
137	0xbdac57a2	-0.08415152
138	0x3d4c09e3	0.049814116
139	0xbe8821b5	-0.26588216
140	0x3d31394d	0.043267537
141	0xbbdca6ca	-0.00673375
142	0xbc537a74	-0.012907613
143	0xbc08a88f	-0.008340969
144	0xbe432181	-0.1905575
145	0xbe026b83	-0.12736325
146	0xbddec5b6	-0.10877554
147	0xbe0982d9	-0.1342882
148	0x3d306f71	0.04307503
149	0xbe4932ea	-0.19648328
150	0xbca324d7	-0.019915028
151	0x3da5d78c	0.08097753
152	0xbce2cb10	-0.027684718
153	0xbd44373e	-0.047904246
154	0xbc146d9b	-0.009059335
155	0x3d3df3be	0.04637503
156	0x3b980e92	0.004640409
157	0xbe039bd8	-0.12852418
158	0x3c0f276d	0.008737427
159	0xbd18fb68	-0.037349135
160	0xbc1d84cb	-0.00961418
161	0xbd9472df	-0.072484724
162	0xbd179acd	-0.037012864
163	0xbe6a5bef	-0.22886632
164	0xbbc060dd	-0.005870922
165	0xbe06b94b	-0.13156621
166	0x3c784e3d	0.015155372
167	0x3def9eed	0.117002346
168	0xbd214422	-0.039371617
169	0xbc8c7d37	-0.01714955
170	0xbd2528bb	-0.040322047
171	0xbc9789f9	-0.018498408
172	0xbdf5c01d	-0.11999533
173	0xbd80dff9	-0.062927194
174	0xbc934c19	-0.017980622
175	0x3c2f3276	0.010693183
176	0xbdc3d1d9	-0.0956151
177	0x3d80c8eb	0.06288322
178	0x3ddacb50	0.1068331
179	0xbdd9335d	-0.106055
180	0x3d25a4fb	0.04044054
181	0x3e347f0a	0.17626587
182	0xbc10b3c1	-0.008831919
183	0x3d59ca84	0.05317165
184	0x3b23cf98	0.0024995562
185	0x3d691d5c	0.056912765
186	0x3dfb522c	0.122715324
187	0xbd988794	-0.074477345
188	0xbc83aea3	-0.016074484
189	0x3c419111	0.011814372
190	0xbe13ffec	-0.14453095
191	0xbc4ff043	-0.01269156
192	0xbd8dea85	-0.06929497
193	0xbdbf61b9	-0.09344811
194	0xbbb45cbe	-0.00550422
195	0xbd63a5f0	-0.055578172
196	0x3d3a466b	0.045477312
197	0xbbec8ec5	-0.007219168
198	0x3d23a7a4	0.039954796
199	0x3ca711b5	0.020394186
200	0x3b602072	0.0034199026
201	0xbcb7bc17	-0.022428555
202	0xbe217924	-0.15768868
203	0x3d3fd570	0.04683441
204	0x3de97a8b	0.11400326
205	0x3d3412f5	0.04396339
206	0xbd831ba1	-0.06401754
207	0xbe2c280c	-0.16812152
208	0x3c12bd54	0.008956272
209	0x3bc3f274	0.0059798304
210	0x3df3d4ac	0.11905798
211	0x3e0549ec	0.1301648
212	0x3da79da4	0.081843644
213	0x3c249fdf	0.010047882
214	0xbe020b10	-0.12699533
215	0x3e2be154	0.16785175
216	0xbd1b2f78	-0.037887067
217	0x3df418ab	0.119187675
218	0x3cb16353	0.021653807
219	0x3d07ed3f	0.03318524
220	0x3e005cf0	0.12535453
221	0x3d7ad7bd	0.0612409
222	0x3d427ea5	0.04748406
223	0x3dea7974	0.114489466
224	0x3d9a6808	0.07539374
225	0xbc76900d	-0.015048993
226	0xbdf19732	-0.11796416
227	0x3dd47b62	0.10375096
228	0xbdc7c9d2	-0.09755291
229	0x3a08d036	0.0005219014
230	0x3d61d960	0.055138946
231	0xbe2e6cc7	-0.17033683
232	0xbd61e4e3	-0.055149924
233	0xbd16d44a	-0.03682355
234	0x3e180680	0.1484623
235	0xbc3b1d2c	-0.011420529
236	0x3d2e66cc	0.042578503
237	0x3d1fced3	0.039015602
238	0x3da61f55	0.08111445
239	0x3c9ceeaa	0.019156773
240	0xbbe03582	-0.006842316
241	0xbc833007	-0.016014112
242	0xbdda4dba	-0.106593564
243	0x3e103669	0.14083256
244	0x3d7e81dd	0.062135566
245	0xbd630cc6	-0.055432104
246	0xbb416950	-0.0029512234
247	0xbe6bfae8	-0.23044932
248	0x3da723e0	0.081611395
249	0x3ddd0757	0.107924156
250	0xbd0cdc34	-0.03438969
251	0x3d5c76a7	0.053824093
252	0xbcd342f0	-0.025788754
253	0x3c919927	0.017773224
254	0x3c58b51d	0.0132267745
255	0xbd0662a2	-0.032808907

lstm/1/w3 f4 [128, 128]
0	0x3b835f5d	0.004009171
1	0x3d9bcf79	0.07607932
2	0xbd69f843	-0.057121526
3	0x3e11ea78	0.14249599
4	0x3da82fb8	0.08212227
5	0x3e47dd42	0.19517997
6	0x3de4ffc5	0.11181597
7	0xbd213973	-0.03936143
8	0x3e387a61	0.18015434
9	0xbda99553	-0.082804345
10	0xb95147b5	-0.00019958506
11	0x3d1ec333	0.038760375
12	0xbdc73597	-0.09727018
13	0xbdd8bddb	-0.10583087
14	0x3d4cba74	0.049982503
15	0x3cb3554e	0.021891262
16	0xbd802bae	-0.06258331
17	0xbdf1ef4b	-0.1181322
18	0x3d16d862	0.036827452
19	0x3deecff6	0.11660759
20	0xbd2549c0	-0.040353537
21	0xbd63fc13	-0.05566032
22	0x3dccaf27	0.09994345
23	0x3d4e0e61	0.05030668
24	0x3dfec9c8	0.124408305
25	0xbdc9340a	-0.09824379
26	0x3d9bcb71	0.07607163
27	0x3e118f53	0.1421483
28	0x3d3c6002	0.045989998
29	0xbc6f5092	-0.014606612
30	0x3d344446	0.044010423
31	0xbdd1be66	-0.10241394
32	0xbe08dac9	-0.1336471
33	0xbe19a8c3	-0.15005784
34	0x3d867022	0.065643564
35	0xbdd425a9	-0.103587456
36	0x3d9625fa	0.07331462
37	0x3c834827	0.016025616
38	0x3ddc7f6d	0.10766492
39	0x3d031ddd	0.0320109
40	0x3d1d04d4	0.038334683
41	0x3d94352a	0.07236703
42	0xbde2c245	-0.1107221
43	0x3cb4ca8f	0.022069244
44	0x3da67236	0.08127253
45	0xbe198f85	-0.14996155
46	0x3e4478b7	0.19186674
47	0xbd56752b	-0.052357834
48	0x3dd1801a	0.102295116
49	0x3d445569	0.047933016
50	0x3d6eaee0	0.058272243
51	0xbde5bdfa	-0.11217876
52	0xbb974ef5	-0.0046175667
53	0x3caa8272	0.020814154
54	0xbe04b631	-0.12960126
55	0x3d5eb69e	0.054373376
56	0xbd9bf3b2	-0.076148406
57	0x3d9a7bf6	0.07543175
58	0x3bd4840e	0.0064854687
59	0x3c3389a9	0.010958114
60	0x3ddedd00	0.10881996
61	0xb9c5aa76	-0.0003770177
62	0x3b96fb64	0.004607605
63	0xbc9e97bc	-0.019359462
64	0x3ccd2380	0.025041342
65	0xbdb038f0	-0.0860461
66	0xbd33fb44	-0.043940797
67	0xbda160d3	-0.07879796
68	0xbc3c1861	-0.011480422
69	0x3b326f92	0.0027227146
70	0xbc5b4838	-0.0133839175
71	0xbdf79a62	-0.12089993
72	0xbd1ae023	-0.03781141
73	0xbd56109f	-0.052261945
74	0xbd15be04	-0.036558166
75	0x3d8e9832	0.06962623
76	0xbd1f6cd1	-0.038922135
77	0xbe0596f0	-0.1304586
78	0xbc986722	-0.018603865
79	0xbdad058b	-0.08448323
80	0xbc18af8a	-0.0093191955
81	0xbdc2ff5b	-0.095213614
82	0xbda03ab4	-0.07823697
83	0x3d6dca78	0.058054417
84	0xbdc4148b	-0.09574231
85	0xbe0cab29	-0.13737167
86	0x3da5fa3d	0.0810437
87	0xbdc725fb	-0.09724041
88	0xbc227d55	-0.009917577
89	0x3bc48f21	0.0059985076
90	0xbda19059	-0.0788886
91	0xbd797673	-0.060903978
92	0xbe2b5c52	-0.16734436
93	0xbd85ad68	-0.06527215
94	0xbe1cc85b	-0.15310805
95	0x3db0781c	0.08616659
96	0xbd83afc2	-0.064300075
97	0x3c5016be	0.012700735
98	0x3ddbb7b8	0.10728401
99	0x3d9eec86	0.07759957
100	0xbd010b65	-0.031505007
101	0xbe2cca36	-0.16874012
102	0xbdf2ad54	-0.11849466
103	0x3d932ae8	0.07185918
104	0xbd0d35b1	-0.034475032
105	0x3e2b6b40	0.16740131
106	0x3d31b585	0.043386
107	0xbddd21d3	-0.10797467
108	0xbe194f6c	-0.14971703
109	0x3dd09fdf	0.10186743
110	0x3b46c7db	0.0030331525
111	0xbc8b8c67	-0.017034722
112	0x3c41e500	0.011834383
113	0x3d0644d5	0.032780487
114	0xbd012a52	-0.0315345
115	0xbd3a13b6	-0.045428954
116	0xbd0eaf85	-0.034835357
117	0x3d8bfa2a	0.068348244
118	0xbcb2e5a5	-0.021838019
119	0x3dc94265	0.09827117
120	0x3d47e43e	0.048801653
121	0xbcd7ba34	-0.026333906
122	0x3dc7a2cc	0.09747848
123	0x3cb48d74	0.022040106
124	0x3daef7ef	0.08543383
125	0xbe55480b	-0.20828263
126	0xbd97309b	-0.07382318
127	0xbe51164d	-0.20418663
128	0xbd2841f8	-0.041078538
129	0x3c421ecb	0.011848162
130	0xbcb48393	-0.022035396
131	0xbdcd59a3	-0.100268625
132	0x3d8bf327	0.06833487
133	0x3dccef86	0.10006623
134	0x3d0a84c8	0.033818036
135	0x3c27c70f	0.01024033
136	0xbc1667ef	-0.009180053
137	0xb9b7e0de	-0.0003507202
138	0x3d988348	0.07446915
139	0xbd656ca6	-0.05601182
140	0x3cf4b065	0.029869268
141	0xbdae5345	-0.08511976
142	0xbc31b5d2	-0.010846572
143	0xbd0d3478	-0.034473866
144	0x3dd4eca1	0.10396696
145	0x3dde838c	0.10864934
146	0xbd5a08b0	-0.05323094
147	0x3d9b4342	0.07581188
148	0xbe3bdbf8	-0.1834563
149	0x3d40e24f	0.047090825
150	0x3dae34ba	0.085061505
151	0x3d8f38bb	0.06993242
152	0xbdf3724e	-0.11887036
153	0xbd8a561c	-0.06754705
154	0xbd8abfc2	-0.06774856
155	0xbd9b301b	-0.07577535
156	0x3db8a5e2	0.09016015
157	0xbccfb53f	-0.02535498
158	0xbdf40280	-0.11914539
159	0x3ca99875	0.02070258
160	0xbd9c1a16	-0.07622163
161	0xbd0e0c6a	-0.034679808
162	0x3dac5537	0.08414691
163	0xbbf3b5a7	-0.007437426
164	0x3d25c286	0.040468715
165	0xbc74509f	-0.0149118
166	0x3e22c1cc	0.1589424
167	0xbcb97998	-0.022640988
168	0x3d951c72	0.07280816
169	0xbb972d6b	-0.0046135685
170	0xbba5a28a	-0.0050547766
171	0x3cb729b0	0.022358745
172	0x3d55313e	0.052048914
173	0xbd93027f	-0.071782105
174	0xbd2fbdc9	-0.042905603
175	0x3dd8c3df	0.105842344
176	0x3e4a78d4	0.19772655
177	0x3c04d670	0.0081077665
178	0x3df99c4a	0.12188013
179	0xbd30f803	-0.043205272
180	0x3d6ef54c	0.058339402
181	0xbdeca018	-0.11553973
182	0x3c268297	0.010162971
183	0xbd8e2f7f	-0.06942653
184	0x3d84f6a5	0.06492356
185	0xbd99ab35	-0.07503358
186	0xbda9d115	-0.08291832
187	0x3d937716	0.07200448
188	0x3e0f6ba6	0.14005908
189	0xbd11fa8a	-0.035639323
190	0x3d25b6fc	0.04045771
191	0xba671586	-0.0008815158
192	0xbd293d37	-0.041318145
193	0x3db8cad7	0.09023064
194	0x3da00b70	0.078146815
195	0xbda54363	-0.080694936
196	0x3d5fca2f	0.054636177
197	0xbde9c167	-0.11413842
198	0xbd8287c7	-0.06373554
199	0xbbbe7000	-0.0058116913
200	0x3d1bb8f8	0.038018197
201	0x3c97745a	0.018488098
202	0xbced5b8e	-0.02897432
203	0xbdd15b27	-0.10222464
204	0xbc5ed04c	-0.0135994665
205	0x3daf2bfb	0.085533105
206	0x3e137026	0.1439825
207	0xbb194c62	-0.0023391475
208	0x3db2ee15	0.08736817
209	0xbc4120e4	-0.011787627
210	0x3db0f6e9	0.086408444
211	0x3c994f25	0.018714497
212	0x3d9a258a	0.07526691
213	0xbde161ec	-0.11005005
214	0x3b850ddf	0.0040604915
215	0x3cab76a9	0.020930605
216	0x3e752144	0.23938471
217	0x3c0d7170	0.008633003
218	0x3db9519f	0.09048771
219	0x3d02c05a	0.031921722
220	0x3da6cd8e	0.08144675
221	0xbdbdf0e8	-0.09274465
222	0x3cbdae9a	0.023154546
223	0xbdbb3003	-0.09140017
224	0x3d11e4fb	0.035618763
225	0x3d589bfb	0.05288313
226	0xbe0f6c73	-0.14006214
227	0xbcdf26cc	-0.02724018
228	0x3d0267d7	0.03183731
229	0xbc9c12c1	-0.019051911
230	0xbdedecfe	-0.11617468
231	0x3dcacff2	0.09902944
232	0xbe32069a	-0.17385331
233	0x3dc53df9	0.09630961
234	0x3cc6503b	0.024208179
235	0xbdc9b55a	-0.09849043
236	0x3d1c9cee	0.038235597
237	0x3e00bd6c	0.12572259
238	0xbd522581	-0.051305298
239	0xbdc515bc	-0.09623286
240	0x3d2f231f	0.042758103
241	0xbd90782e	-0.070541725
242	0x3daa783d	0.08323715
243	0xbe1da6ce	-0.15395662
244	0xbd107413	-0.035266947
245	0x3d8acac6	0.06776957
246	0x3daf99a2	0.08574225
247	0xbd5da5a5	-0.05411305
248	0x3da57703	0.0807934
249	0xbbdde7ed	-0.0067720325
250	0x3d9fc67f	0.07801532
251	0xbe026b89	-0.12736334
252	0xbe873fad	-0.26415768
253	0xbd7c795c	-0.061639175
254	0x3d3b0aca	0.045664586
255	0xbdb380ae	-0.08764778

lstm/1/b3 f4 [128]
0	0x00000000	0.0
1	0x00000000	0.0
2	0x00000000	0.0
3	0x00000000	0.0
4	0x00000000	0.0
5	0x00000000	0.0
6	0x00000000	0.0
7	0x00000000	0.0
8	0x00000000	0.0
9	0x00000000	0.0
10	0x00000000	0.0
11	0x00000000	0.0
12	0x00000000	0.0
13	0x00000000	0.0
14	0x00000000	0.0
15	0x00000000	0.0
16	0x00000000	0.0
17	0x00000000	0.0
18	0x00000000	0.0
19	0x00000000	0.0
20	0x00000000	0.0
21	0x00000000	0.0
22	0x00000000	0.0
23	0x00000000	0.0
24	0x00000000	0.0
25	0x00000000	0.0
26	0x00000000	0.0
27	0x00000000	0.0
28	0x00000000	0.0
29	0x00000000	0.0
30	0x00000000	0.0
31	0x00000000	0.0
32	0x00000000	0.0
33	0x00000000	0.0
34	0x00000000	0.0
35	0x00000000	0.0
36	0x00000000	0.0
37	0x00000000	0.0
38	0x00000000	0.0
39	0x00000000	0.0
40	0x00000000	0.0
41	0x00000000	0.0
42	0x00000000	0.0
43	0x00000000	0.0
44	0x00000000	0.0
45	0x00000000	0.0
46	0x00000000	0.0
47	0x00000000	0.0
48	0x00000000	0.0
49	0x00000000	0.0
50	0x00000000	0.0
51	0x00000000	0.0
52	0x00000000	0.0
53	0x00000000	0.0
54	0x00000000	0.0
55	0x00000000	0.0
56	0x00000000	0.0
57	0x00000000	0.0
58	0x00000000	0.0
59	0x00000000	0.0
60	0x00000000	0.0
61	0x00000000	0.0
62	0x00000000	0.0
63	0x00000000	0.0
64	0x00000000	0.0
65	0x00000000	0.0
66	0x00000000	0.0
67	0x00000000	0.0
68	0x00000000	0.0
69	0x00000000	0.0
70	0x00000000	0.0
71	0x00000000	0.0
72	0x00000000	0.0
73	0x00000000	0.0
74	0x00000000	0.0
75	0x00000000	0.0
76	0x00000000	0.0
77	0x00000000	0.0
78	0x00000000	0.0
79	0x00000000	0.0
80	0x00000000	0.0
81	0x00000000	0.0
82	0x00000000	0.0
83	0x00000000	0.0
84	0x00000000	0.0
85	0x00000000	0.0
86	0x00000000	0.0
87	0x00000000	0.0
88	0x00000000	0.0
89	0x00000000	0.0
90	0x00000000	0.0
91	0x00000000	0.0
92	0x00000000	0.0
93	0x00000000	0.0
94	0x00000000	0.0
95	0x00000000	0.0
96	0x00000000	0.0
97	0x00000000	0.0
98	0x00000000	0.0
99	0x00000000	0.0
100	0x00000000	0.0
101	0x00000000	0.0
102	0x00000000	0.0
103	0x00000000	0.0
104	0x00000000	0.0
105	0x00000000	0.0
106	0x00000000	0.0
107	0x00000000	0.0
108	0x00000000	0.0
109	0x00000000	0.0
110	0x00000000	0.0
111	0x00000000	0.0
112	0x00000000	0.0
113	0x00000000	0.0
114	0x00000000	0.0
115	0x00000000	0.0
116	0x00000000	0.0
117	0x00000000	0.0
118	0x00000000	0.0
119	0x00000000	0.0
120	0x00000000	0.0
121	0x00000000	0.0
122	0x00000000	0.0
123	0x00000000	0.0
124	0x00000000	0.0
125	0x00000000	0.0
126	0x00000000	0.0
127	0x00000000	0.0

l2/W f4 [1, 128]
0	0x3c77b319	0.015118384
1	0x3db4b031	0.08822668
2	0x3d9c3dbd	0.07628963
3	0xbe52abff	-0.20573424
4	0x3ce02af7	0.027364237
5	0xbe04af5e	-0.12957522
6	0x3daab9fa	0.083362535
7	0xbd246bad	-0.04014175
8	0xbddee1b7	-0.108828954
9	0xbe1abfec	-0.15112275
10	0x3d610f0d	0.054945994
11	0x3d5b6444	0.053562418
12	0xbe8c0017	-0.2734382
13	0x3d105b98	0.0352436
14	0xbe24f506	-0.16109094
15	0x3b877f8f	0.004135079
16	0xbddfccc7	-0.1092773
17	0xbdacc7b6	-0.08436529
18	0xbdad493d	-0.08461235
19	0xbe1800ba	-0.14844027
20	0xbe064247	-0.1311122
21	0xbdf2fe9f	-0.11864971
22	0xbe0571a3	-0.1303163
23	0xbd6cef08	-0.057845145
24	0xbdf9831f	-0.121832125
25	0xbde9086f	-0.11378562
26	0xbe42f63c	-0.19039243
27	0x3d310d20	0.043225408
28	0xbddb6c81	-0.10714055
29	0xbd9d52a8	-0.07681781
30	0x3d37b35e	0.044848792
31	0xbe29c480	-0.16578865
32	0x3d9c3898	0.07627982
33	0xbe4341dc	-0.19068092
34	0xbe88f050	-0.26745844
35	0x3da503ea	0.08057387
36	0x3d689fb3	0.056792926
37	0x3c769f8c	0.015052687
38	0x3deb4d53	0.11489358
39	0xbe00b7d3	-0.12570123
40	0xbe06c113	-0.1315959
41	0xbde1dff6	-0.11029045
42	0xbd60bb1e	-0.05486595
43	0xbb0aa8af	-0.0021157672
44	0x3dda4a8e	0.106587514
45	0xbdc06727	-0.09394675
46	0xbe44c25c	-0.19214767
47	0x3d41353d	0.047169913
48	0xbd1afe3c	-0.037840113
49	0xbe4fdd8f	-0.20299362
50	0x3e1e761d	0.15474744
51	0xbdb3ea9e	-0.08784984
52	0xbe3ff021	-0.18743946
53	0xbe5641e1	-0.20923568
54	0xbd99d3c7	-0.075110964
55	0x3d2ddc78	0.042446584
56	0x3c896dcf	0.016775994
57	0xbe02e06c	-0.12780923
58	0x3d1e0061	0.03857458
59	0x3d48fb38	0.049067706
60	0x3da2ecff	0.0795536
61	0x3b24ba62	0.0025135507
62	0xbdf83475	-0.121193804
63	0x3c974bb9	0.018468725
64	0x3e37b28d	0.17939205
65	0xbddf4484	-0.1090174
66	0x3dc9133d	0.098181225
67	0xbe7d8fe2	-0.24761918
68	0xbc21cf15	-0.009876032
69	0xbe205274	-0.15656453
70	0xbe4468ee	-0.19180652
71	0xbe24d6d4	-0.16097575
72	0xbe799de5	-0.24376638
73	0xbd81af64	-0.06332281
74	0xbe860ea3	-0.26183042
75	0xbe007ce3	-0.1254764
76	0xbe4a695a	-0.19766751
77	0xbd793c87	-0.06084874
78	0x3c031792	0.008001225
79	0xbe7870a0	-0.24261713
80	0xbd7ae23a	-0.061250903
81	0xbd80321c	-0.062595576
82	0xbc0530fb	-0.008129354
83	0x3d8c969a	0.068646625
84	0x3b6cfd06	0.0036161556
85	0x3da8dd5b	0.08245345
86	0xbde3ec65	-0.11129073
87	0x3cc4b592	0.02401236
88	0xbdfea5aa	-0.12433942
89	0x3d99f1f1	0.0751685
90	0xbe43b382	-0.19111446
91	0x3d34b296	0.044115625
92	0xbe4da7a1	-0.20083477
93	0x3c6957bb	0.014242108
94	0x3ad35127	0.0016122208
95	0xbe012820	-0.12612963
96	0x3d8340c2	0.06408836
97	0xbde31a50	-0.11089003
98	0x3c8b44f5	0.017000655
99	0xbe09ef87	-0.13470279
100	0x3e5e31a2	0.21698621
101	0xbdc2980a	-0.095016554
102	0xbe88fd7e	-0.267559
103	0xbe450c48	-0.19242966
104	0x3d9eb395	0.07749096
105	0xbdd0c332	-0.101934806
106	0x3dc0e758	0.09419125
107	0xbe3ecfaa	-0.18633905
108	0xbe114035	-0.1418465
109	0xbd956aa3	-0.0729573
110	0x3ddb7ab8	0.10716766
111	0x3cd57ccc	0.026060484
112	0x3d59571f	0.0530616
113	0xbe273e87	-0.16332446
114	0x3d0ca573	0.034337472
115	0xbe6457c3	-0.22299103
116	0xbe6300d2	-0.22168282
117	0xbdd8d609	-0.10587699
118	0xbe562641	-0.2091303
119	0x3d1f8a74	0.0389504
120	0x3df34673	0.118786715
121	0x3db6c653	0.08924546
122	0xbdac125a	-0.08401938
123	0xbe4e1c76	-0.20128044
124	0xbe812e56	-0.25230664
125	0xbdc28969	-0.09498865
126	0xbd9926d3	-0.07478108
127	0xbe105f69	-0.14098896

lstm/0/w2 f4 [128, 1]
0	0xbfdf078a	-1.7424176
1	0xbf49a6c8	-0.78770113
2	0xbeb2e23f	-0.34938237
3	0x3f9e455b	1.2364916
4	0xbf11e0f2	-0.56983864
5	0xbf806e5e	-1.0033681
6	0x3f6d8f2d	0.92796594
7	0xbe581066	-0.21100006
8	0xbfc35d69	-1.5262882
9	0xbd54beb7	-0.051939692
10	0x3f4340d7	0.7627081
11	0xbc316f2c	-0.010829728
12	0x3f79eac6	0.9762386
13	0xbd6b5b3e	-0.057460062
14	0x3f8d8691	1.1056691
15	0x3f8e6593	1.1124748
16	0xbfe13c43	-1.7596515
17	0xbf6cfa1c	-0.92569137
18	0xbf8eb3e8	-1.1148653
19	0xbfdf6d1b	-1.7455171
20	0x3f346329	0.70463806
21	0xbfa279d5	-1.269343
22	0x3ca9c250	0.020722538
23	0xbf45acb5	-0.77216655
24	0xbf3f598b	-0.74746007
25	0x3f3b15a9	0.73079926
26	0xbf943f3c	-1.1581798
27	0x3ecf74dd	0.40518847
28	0xbea45925	-0.32099262
29	0xbfdcf445	-1.7262045
30	0xbf7930c4	-0.97340035
31	0xbf6be1ad	-0.9214123
32	0xbf1d1bd2	-0.61370575
33	0xbf25a641	-0.6470681
34	0x3f624c3d	0.8839758
35	0xbf8a2264	-1.0791745
36	0x3f856bcc	1.0423522
37	0xbfb0701f	-1.3784217
38	0x3fb144df	1.3849143
39	0x3f88042d	1.0626274
40	0xbf51a96c	-0.8189914
41	0x3e33085b	0.17483656
42	0xbf818c48	-1.0120935
43	0xbf004a8b	-0.50113744
44	0xbe9ade10	-0.30247545
45	0x40189281	2.383942
46	0x3f901f77	1.1259602
47	0xbd609ecc	-0.05483894
48	0x3f4e41f1	0.8056937
49	0x3ed79aa6	0.42110175
50	0x3f13095f	0.57436174
51	0x3f3664a9	0.71247345
52	0x3f9e03c9	1.2344905
53	0xbf66bf7f	-0.9013595
54	0x3fd613ce	1.6724794
55	0xbf87eaff	-1.061859
56	0xbf002000	-0.5004883
57	0x3f6de72c	0.92930865
58	0x3fa25e05	1.2684942
59	0x3fc70eee	1.5551431
60	0xbf2f92b8	-0.6858325
61	0xbfbba237	-1.4658879
62	0xbf97db73	-1.1863846
63	0x40001bbd	2.001693
64	0x3f202058	0.6254935
65	0xbefb01d7	-0.4902484
66	0x3eb5e9c7	0.3552992
67	0xbf86303d	-1.0483471
68	0x3ede3957	0.43403122
69	0xbd09cf1d	-0.033644784
70	0x3e84c8bd	0.259344
71	0xbeb29ff5	-0.34887663
72	0x3f071890	0.52771854
73	0x3f1faa62	0.6236936
74	0x401384e2	2.3049855
75	0x3e5e270f	0.21694587
76	0xbfbadeb7	-1.4599217
77	0xbf36fec6	-0.71482503
78	0xbe98f2a6	-0.29872626
79	0xbd33c1d3	-0.043886017
80	0xbfc5e625	-1.546086
81	0xbf83009f	-1.0234565
82	0x3f6bd633	0.9212372
83	0x3ff7d374	1.9361405
84	0xbf9cc69f	-1.2248114
85	0xbfc782ce	-1.5586793
86	0xbd8a17e2	-0.067428365
87	0xbf826c6e	-1.018934
88	0x3f2cc5c6	0.6748928
89	0x3ece6084	0.4030801
90	0x3ee70a78	0.45125175
91	0x3f465a3d	0.7748144
92	0xbed49246	-0.41517848
93	0x3e78cb43	0.24296288
94	0x3f8055f4	1.0026231
95	0xbf8ed56d	-1.1158882
96	0x3fdeae7b	1.7396997
97	0x3fc14f7d	1.5102383
98	0x3fd586fd	1.668182
99	0xbf94db66	-1.1629455
100	0x3ff382a9	1.9024249
101	0x3feb0453	1.8360695
102	0x3d7b68f4	0.061379388
103	0x3f1a3ac2	0.6024591
104	0xbf2beee8	-0.67161417
105	0xbfe979cf	-1.8240298
106	0x3fc34c68	1.5257692
107	0xbf3b79a8	-0.7323251
108	0x3f5a6a3b	0.85318345
109	0x3df1a77e	0.11799525
110	0xbf47932f	-0.7795896
111	0xbf27521d	-0.6535967
112	0x3f824b8f	1.0179309
113	0xbfc72600	-1.5558472
114	0x3f194996	0.5987791
115	0xbe32f4ea	-0.1747624
116	0xbf07619a	-0.52883303
117	0x3ee70205	0.45118728
118	0x3fe8ec5d	1.8197132
119	0xbe3edce5	-0.18638952
120	0x3e719bc7	0.2359458
121	0xbf9908ac	-1.1955771
122	0x3d535331	0.05159301
123	0x3f2c716e	0.6736058
124	0xbeabc342	-0.33547407
125	0xbe934029	-0.28759888
126	0xbedac9d7	-0.42732117
127	0xbee57888	-0.4481852

l1/b f4 [128]
0	0xbd1c2383	-0.038119804
1	0xbc9ebd08	-0.019377246
2	0xbc9f7255	-0.019463697
3	0x3d0f20c1	0.034943346
4	0xbcc9dac4	-0.024640448
5	0x3e049819	0.12948646
6	0xbcbf638d	-0.0233629
7	0x3d66529c	0.056231126
8	0x3dcc407b	0.09973236
9	0x3d142474	0.036167577
10	0xbcb730bb	-0.022362104
11	0xbcc981ee	-0.024598088
12	0x3dcda939	0.10042042
13	0xbca1cdc6	-0.01975144
14	0x3dea8fa4	0.114531785
15	0xbca13fa2	-0.019683663
16	0x3d17fee6	0.037108324
17	0x3d289858	0.04116091
18	0x3d43cb8e	0.047801547
19	0x3d263726	0.040579937
20	0x3dff86c7	0.124768786
21	0x3d1b9496	0.0379835
22	0x3d180be6	0.037120722
23	0x3d5c1f7b	0.05374096
24	0x3db28253	0.087162636
25	0x3d1f4eff	0.038893696
26	0x3d105dec	0.03524582
27	0xbced3925	-0.028957913
28	0x3d1941ce	0.037416272
29	0x3d309016	0.04310616
30	0xbcac696e	-0.021046367
31	0x3d1f2ebb	0.038862925
32	0xbc982ba5	-0.018575499
33	0x3d562912	0.05228526
34	0x3d157fda	0.036498882
35	0xbca986df	-0.020694194
36	0xbc9e685f	-0.019336877
37	0xbc8da87b	-0.017292252
38	0xbcf8a0ab	-0.03035005
39	0x3d426b10	0.047465384
40	0x3e04aa4a	0.12955585
41	0x3d1bef3a	0.03806994
42	0x3d7159ed	0.05892365
43	0xbc7b6bee	-0.015345557
44	0xbcf02674	-0.02931521
45	0x3d3276f3	0.04357047
46	0x3d101190	0.035173
47	0xbd116c97	-0.03550395
48	0x3afd2fec	0.001931665
49	0x3d173739	0.0369179
50	0xbca6a0d0	-0.020340353
51	0x3d15968e	0.036520533
52	0x3deb09c6	0.114764735
53	0x3d191396	0.037372194
54	0x3d5128b1	0.051064197
55	0xbcb58c56	-0.022161644
56	0xbceb34d3	-0.028711712
57	0x3d1d2a13	0.038370203
58	0xbced5757	-0.028972311
59	0xbcc27161	-0.023735704
60	0xbc9e2b8b	-0.019307872
61	0xbcb2c8bc	-0.021824233
62	0x3d2911d3	0.041276764
63	0xbc9f1ebd	-0.019423837
64	0xbc9c8927	-0.019108368
65	0x3d194009	0.037414584
66	0xbca0cb8a	-0.019628305
67	0x3d12b5d5	0.03581794
68	0xbc70ceba	-0.014697725
69	0x3d39eaba	0.04538987
70	0x3ddc750e	0.10764514
71	0x3d16b5b7	0.03679439
72	0x3d7b53be	0.06135916
73	0x3d2bc608	0.041936904
74	0x3d0e0c71	0.034679834
75	0x3d17b299	0.03703556
76	0x3d1a9165	0.037736315
77	0x3d2fb86c	0.042900488
78	0xbca09fc0	-0.019607425
79	0x3dd3d6a0	0.10343671
80	0x3d59e4ce	0.05319672
81	0x3d6b36f0	0.05742544
82	0xbc53eca4	-0.0129348375
83	0xbc96af7a	-0.01839422
84	0xbc9ba996	-0.019001763
85	0xbc8c4695	-0.0171235
86	0x3d26c2a8	0.040712982
87	0xbcecf5eb	-0.028925857
88	0x3d2194c7	0.039448526
89	0xbcd1bb0f	-0.025601892
90	0x3d3b09ae	0.04566353
91	0xbc8740d3	-0.016510403
92	0x3d1f65d0	0.038915455
93	0xbc8e35d3	-0.01735965
94	0xbc94351e	-0.018091734
95	0x3e020813	0.12698393
96	0xbc987572	-0.01861069
97	0x3d7202bf	0.05908465
98	0xbcd3bc9f	-0.025846777
99	0x3e082c16	0.13298067
100	0xbca28a5f	-0.019841371
101	0x3d8ddf90	0.06927407
102	0x3d13ccf6	0.036084138
103	0x3d3311ac	0.043718025
104	0xbca013c4	-0.019540675
105	0x3d2f9984	0.042871013
106	0xbd07c36d	-0.033145357
107	0x3d1058ef	0.035241064
108	0x3d446ff1	0.04795832
109	0x3d8598b9	0.0652327
110	0xbcd7b59f	-0.02633172
111	0xbcd8815f	-0.026428876
112	0xbd05f094	-0.032700136
113	0x3d1148db	0.03546987
114	0xbcac8d73	-0.021063542
115	0x3d127d89	0.03576425
116	0x3d1112be	0.035418265
117	0x3d37b69c	0.044851884
118	0x3ddd5caf	0.108086936
119	0xbcd8d491	-0.026468547
120	0xbc8428ac	-0.016132675
121	0xbcb316ea	-0.021861512
122	0x3d25e24a	0.04049901
123	0x3d1c7bee	0.038204126
124	0x3d32a38e	0.04361301
125	0x3d25d621	0.040487412
126	0x3d2ee492	0.04269845
127	0x3df7914e	0.120882615

lstm/0/w0 f4 [128, 1]
0	0xbf292635	-0.66073924
1	0xbed0f04e	-0.40808338
2	0xbed1950b	-0.40934023
3	0xbf0e2ebc	-0.5554006
4	0xbf3f33d4	-0.7468846
5	0x4008953b	2.1341083
6	0xbeaa98f9	-0.33319834
7	0xbf8b6ec5	-1.0893179
8	0x3f93f1e2	1.1558192
9	0xbf8ae15c	-1.0850024
10	0xbffeffab	-1.9921774
11	0x3f3df87c	0.7420728
12	0x3f957574	1.1676469
13	0xbe0385b6	-0.12843975
14	0xbf75209e	-0.95752895
15	0xbf88e33d	-1.0694348
16	0xbf9b587e	-1.2136381
17	0x3f11b9ab	0.5692393
18	0x3ef8d94e	0.4860329
19	0xbe1a9870	-0.15097213
20	0x3de4fdc4	0.111812145
21	0xbd9aab8c	-0.07552251
22	0xbfbafc93	-1.460833
23	0xbfa5d349	-1.2955104
24	0x3f9f4b13	1.2444786
25	0x3e0a13c6	0.13484105
26	0x3f6e7c0d	0.93158036
27	0xbf04c4e2	-0.5186292
28	0xbe605b2b	-0.21909778
29	0xc0112538	-2.2678967
30	0xbeef9281	-0.4679146
31	0xbf994b2f	-1.1976069
32	0x3e93a9cb	0.2884048
33	0x3f30a658	0.6900382
34	0xbf046637	-0.5171847
35	0x3f09e4d2	0.5386478
36	0xc0385254	-2.880025
37	0x400962f8	2.1466656
38	0x3ee04684	0.438038
39	0x3f212bfe	0.6295775
40	0xbf604dc3	-0.87618655
41	0x3e4d5f30	0.20055842
42	0xbf418c02	-0.7560426
43	0x3fa41f04	1.2821965
44	0xbef21e7d	-0.47288886
45	0x3faf662d	1.3703057
46	0x3f416d46	0.75557363
47	0xc02f7449	-2.7414725
48	0x3fbd21a9	1.4775897
49	0xc022a9ef	-2.541622
50	0xc02bd6f7	-2.6849954
51	0xbf7af6ee	-0.98033035
52	0x3f2d6eb4	0.67747045
53	0xbe155202	-0.14582065
54	0x3eda8e01	0.42686465
55	0xbf41c5ec	-0.7569263
56	0x3ed577da	0.41693002
57	0xbfc8ff46	-1.5702903
58	0xbff23215	-1.8921534
59	0x3e508a55	0.2036527
60	0xbec642bb	-0.38722786
61	0xbf2bfc1c	-0.67181563
62	0x3e45b4ae	0.19307205
63	0xbec49485	-0.3839456
64	0x3e49538f	0.19660781
65	0xbfe6807e	-1.8007963
66	0xbfbecf3e	-1.4906995
67	0xbf27c645	-0.6553691
68	0x3e2ef334	0.17084962
69	0x3f3e2a8b	0.74283665
70	0xbfed64aa	-1.8546345
71	0xbfc05c2d	-1.502813
72	0xbe84328b	-0.2581981
73	0x400d65b6	2.209333
74	0xbf469c9d	-0.7758272
75	0x3e3a8a69	0.18216862
76	0xbf7ae532	-0.98005974
77	0x3d01b97d	0.031671036
78	0xbf57883e	-0.84192264
79	0x3f754c76	0.95819795
80	0xbff7390d	-1.9314286
81	0xbe1b5d61	-0.1517234
82	0x3dfb5502	0.12272073
83	0x3f5376bf	0.8260307
84	0x3e8ff327	0.28115198
85	0x3f6f10ba	0.933849
86	0x3e668347	0.22511016
87	0x3d855719	0.06510753
88	0x3def63b0	0.11688936
89	0x3f96012f	1.1719111
90	0xbeaf3dac	-0.3422674
91	0xbfa8918d	-1.3169419
92	0xbec670e1	-0.38757995
93	0x401ccecd	2.450122
94	0xc002943d	-2.0402977
95	0x3f581215	0.8440259
96	0xbe863185	-0.26209655
97	0xbf973a15	-1.18146
98	0xbf09d6ec	-0.5384357
99	0xbf9ba4aa	-1.2159626
100	0x3f36ea7b	0.7145154
101	0x3fa96970	1.3235302
102	0xbecac07d	-0.39599982
103	0x3faf7725	1.3708235
104	0x3f9c9c86	1.2235267
105	0x3ec1380e	0.3773808
106	0x3fd39491	1.6529714
107	0x3fabfcf0	1.3436565
108	0xbf98f7c1	-1.1950608
109	0x3f5f0c0a	0.87127745
110	0x3f17673c	0.591419
111	0xbe600165	-0.21875532
112	0xbf0db87f	-0.55359644
113	0x3f287cd5	0.6581548
114	0xbe2c860e	-0.16848013
115	0xbf8ecfd0	-1.1157169
116	0x3fcd1dc5	1.602471
117	0x3f69c059	0.91309124
118	0xbfc6609b	-1.5498232
119	0x4006cf25	2.106393
120	0xbfe7ba7e	-1.8103788
121	0x3ee94c4b	0.4556602
122	0x3fed9a3e	1.8562696
123	0x3d22b6d6	0.039725147
124	0x3effa529	0.49930695
125	0xbece3dbe	-0.4028148
126	0xbf44a8d2	-0.768201
127	0x3f743782	0.953972

lstm/1/b2 f4 [128]
0	0x00000000	0.0
1	0x00000000	0.0
2	0x00000000	0.0
3	0x00000000	0.0
4	0x00000000	0.0
5	0x00000000	0.0
6	0x00000000	0.0
7	0x00000000	0.0
8	0x00000000	0.0
9	0x00000000	0.0
10	0x00000000	0.0
11	0x00000000	0.0
12	0x00000000	0.0
13	0x00000000	0.0
14	0x00000000	0.0
15	0x00000000	0.0
16	0x00000000	0.0
17	0x00000000	0.0
18	0x00000000	0.0
19	0x00000000	0.0
20	0x00000000	0.0
21	0x00000000	0.0
22	0x00000000	0.0
23	0x00000000	0.0
24	0x00000000	0.0
25	0x00000000	0.0
26	0x00000000	0.0
27	0x00000000	0.0
28	0x00000000	0.0
29	0x00000000	0.0
30	0x00000000	0.0
31	0x00000000	0.0
32	0x00000000	0.0
33	0x00000000	0.0
34	0x00000000	0.0
35	0x00000000	0.0
36	0x00000000	0.0
37	0x00000000	0.0
38	0x00000000	0.0
39	0x00000000	0.0
40	0x00000000	0.0
41	0x00000000	0.0
42	0x00000000	0.0
43	0x00000000	0.0
44	0x00000000	0.0
45	0x00000000	0.0
46	0x00000000	0.0
47	0x00000000	0.0
48	0x00000000	0.0
49	0x00000000	0.0
50	0x00000000	0.0
51	0x00000000	0.0
52	0x00000000	0.0
53	0x00000000	0.0
54	0x00000000	0.0
55	0x00000000	0.0
56	0x00000000	0.0
57	0x00000000	0.0
58	0x00000000	0.0
59	0x00000000	0.0
60	0x00000000	0.0
61	0x00000000	0.0
62	0x00000000	0.0
63	0x00000000	0.0
64	0x00000000	0.0
65	0x00000000	0.0
66	0x00000000	0.0
67	0x00000000	0.0
68	0x00000000	0.0
69	0x00000000	0.0
70	0x00000000	0.0
71	0x00000000	0.0
72	0x00000000	0.0
73	0x00000000	0.0
74	0x00000000	0.0
75	0x00000000	0.0
76	0x00000000	0.0
77	0x00000000	0.0
78	0x00000000	0.0
79	0x00000000	0.0
80	0x00000000	0.0
81	0x00000000	0.0
82	0x00000000	0.0
83	0x00000000	0.0
84	0x00000000	0.0
85	0x00000000	0.0
86	0x00000000	0.0
87	0x00000000	0.0
88	0x00000000	0.0
89	0x00000000	0.0
90	0x00000000	0.0
91	0x00000000	0.0
92	0x00000000	0.0
93	0x00000000	0.0
94	0x00000000	0.0
95	0x00000000	0.0
96	0x00000000	0.0
97	0x00000000	0.0
98	0x00000000	0.0
99	0x00000000	0.0
100	0x00000000	0.0
101	0x00000000	0.0
102	0x00000000	0.0
103	0x00000000	0.0
104	0x00000000	0.0
105	0x00000000	0.0
106	0x00000000	0.0
107	0x00000000	0.0
108	0x00000000	0.0
109	0x00000000	0.0
110	0x00000000	0.0
111	0x00000000	0.0
112	0x00000000	0.0
113	0x00000000	0.0
114	0x00000000	0.0
115	0x00000000	0.0
116	0x00000000	0.0
117	0x00000000	0.0
118	0x00000000	0.0
119	0x00000000	0.0
120	0x00000000	0.0
121	0x00000000	0.0
122	0x00000000	0.0
123	0x00000000	0.0
124	0x00000000	0.0
125	0x00000000	0.0
126	0x00000000	0.0
127	0x00000000	0.0

lstm/0/b0 f4 [128]
0	0x00000000	0.0
1	0x00000000	0.0
2	0x00000000	0.0
3	0x00000000	0.0
4	0x00000000	0.0
5	0x00000000	0.0
6	0x00000000	0.0
7	0x00000000	0.0
8	0x00000000	0.0
9	0x00000000	0.0
10	0x00000000	0.0
11	0x00000000	0.0
12	0x00000000	0.0
13	0x00000000	0.0
14	0x00000000	0.0
15	0x00000000	0.0
16	0x00000000	0.0
17	0x00000000	0.0
18	0x00000000	0.0
19	0x00000000	0.0
20	0x00000000	0.0
21	0x00000000	0.0
22	0x00000000	0.0
23	0x00000000	0.0
24	0x00000000	0.0
25	0x00000000	0.0
26	0x00000000	0.0
27	0x00000000	0.0
28	0x00000000	0.0
29	0x00000000	0.0
30	0x00000000	0.0
31	0x00000000	0.0
32	0x00000000	0.0
33	0x00000000	0.0
34	0x00000000	0.0
35	0x00000000	0.0
36	0x00000000	0.0
37	0x00000000	0.0
38	0x00000000	0.0
39	0x00000000	0.0
40	0x00000000	0.0
41	0x00000000	0.0
42	0x00000000	0.0
43	0x00000000	0.0
44	0x00000000	0.0
45	0x00000000	0.0
46	0x00000000	0.0
47	0x00000000	0.0
48	0x00000000	0.0
49	0x00000000	0.0
50	0x00000000	0.0
51	0x00000000	0.0
52	0x00000000	0.0
53	0x00000000	0.0
54	0x00000000	0.0
55	0x00000000	0.0
56	0x00000000	0.0
57	0x00000000	0.0
58	0x00000000	0.0
59	0x00000000	0.0
60	0x00000000	0.0
61	0x00000000	0.0
62	0x00000000	0.0
63	0x00000000	0.0
64	0x00000000	0.0
65	0x00000000	0.0
66	0x00000000	0.0
67	0x00000000	0.0
68	0x00000000	0.0
69	0x00000000	0.0
70	0x00000000	0.0
71	0x00000000	0.0
72	0x00000000	0.0
73	0x00000000	0.0
74	0x00000000	0.0
75	0x00000000	0.0
76	0x00000000	0.0
77	0x00000000	0.0
78	0x00000000	0.0
79	0x00000000	0.0
80	0x00000000	0.0
81	0x00000000	0.0
82	0x00000000	0.0
83	0x00000000	0.0
84	0x00000000	0.0
85	0x00000000	0.0
86	0x00000000	0.0
87	0x00000000	0.0
88	0x00000000	0.0
89	0x00000000	0.0
90	0x00000000	0.0
91	0x00000000	0.0
92	0x00000000	0.0
93	0x00000000	0.0
94	0x00000000	0.0
95	0x00000000	0.0
96	0x00000000	0.0
97	0x00000000	0.0
98	0x00000000	0.0
99	0x00000000	0.0
100	0x00000000	0.0
101	0x00000000	0.0
102	0x00000000	0.0
103	0x00000000	0.0
104	0x00000000	0.0
105	0x00000000	0.0
106	0x00000000	0.0
107	0x00000000	0.0
108	0x00000000	0.0
109	0x00000000	0.0
110	0x00000000	0.0
111	0x00000000	0.0
112	0x00000000	0.0
113	0x00000000	0.0
114	0x00000000	0.0
115	0x00000000	0.0
116	0x00000000	0.0
117	0x00000000	0.0
118	0x00000000	0.0
119	0x00000000	0.0
120	0x00000000	0.0
121	0x00000000	0.0
122	0x00000000	0.0
123	0x00000000	0.0
124	0x00000000	0.0
125	0x00000000	0.0
126	0x00000000	0.0
127	0x00000000	0.0
